model/model.pth (torch, 16799 bytes, 4 tensors)

linear1.weight f4 [256, 11]
-0.24650083 0.12201527 0.095067896 -0.17386688 -0.274821 -0.15870136 -0.2564787 0.25285426
0.20732714 -0.20673896 -0.24771826 -0.06592531 -0.006072167 0.1301467 0.15798439 0.027560266
-0.066863276 0.23208787 0.08505512 0.07823021 -0.018430205 -0.07883249 0.10292425 -0.28181225
0.020077148 -0.105036475 0.15185581 0.17600523 -0.2702459 -0.19794679 -0.25418672 0.1679641
-0.08345347 -0.14610282 0.042150337 -0.21141455 -0.20961276 -0.08287076 -0.17804939 0.032962814
-0.027736962 -0.110826716 -0.07361124 0.121260166 0.058056675 0.23121266 -0.28529903 -0.08957638
-0.09187312 0.17189506 -0.2447961 0.08700862 -0.21101627 -0.15681913 -0.070847966 -0.2521844
-0.0062087886 0.25737086 0.2589967 -0.04202081 -0.15471403 -0.19588777 0.29546106 -0.035670858
-0.24914174 0.23424158 0.26481387 0.2488562 -0.24479897 0.13733171 -0.15925965 0.23990151
0.0937483 -0.02567309 0.15386897 0.08300534 0.042226303 0.077071466 0.021984069 0.11257101
0.24957305 0.20156266 -0.01462453 -0.2229655 -0.15055321 0.27180138 -0.26017922 -0.24321334
-0.070172936 -0.2516621 0.019446988 0.22037667 0.015693009 0.2879962 -0.07934784 -0.05609407
-0.19996594 0.109799825 -0.23630066 0.04205049 -0.08779451 0.04225777 0.14646162 0.11915081
-0.27076682 -0.18638672 -0.26497486 0.10118445 0.12521157 -0.2542259 0.16943343 0.016536418
0.0008610853 -0.102789626 -0.1772374 0.15861337 0.17266141 -0.08517028 0.17997454 -0.105326734
-0.20851351 -0.16129091 0.15508008 0.06390191 -0.24174523 0.088699155 -0.06663899 0.11229796
-0.047860257 -0.18476148 0.032960244 0.19198829 0.14427628 0.22178842 -0.19916444 0.26465428
-0.117876746 0.12960011 -0.29800013 -0.03501805 0.22037221 -0.18537112 0.08181002 0.18527569
-0.0783822 -0.0507569 0.18618937 -0.14793721 -0.14402686 -0.054879136 0.019240493 -0.14509067
0.1999084 0.090103425 -0.18511215 -0.29087123 -0.011892158 0.061989624 0.29431328 -0.106417276
-0.14761034 0.1831324 -0.12899613 -0.18034858 -0.27684698 -0.1199009 0.12589854 0.2175499
0.2885285 -0.14994922 -0.23154955 0.17040673 -0.04069758 -0.11426051 0.25559345 -0.2709422
0.2650014 0.019450385 0.19913295 0.14419465 -0.1334165 -0.25983104 0.2680209 -0.1582297
-0.21133396 -0.20462945 -0.25108284 -0.08160636 0.15506305 -0.048061732 0.09468201 0.08877414
-0.15947323 0.008618954 -0.24997081 0.22272487 0.10981558 -0.24686898 -0.15447462 -0.2760158
-0.26108423 -0.1001829 0.0032286118 0.12814583 -0.29797465 -0.08733574 -0.09859156 -0.2786744
-0.13483205 0.087321036 -0.024364147 -0.21131095 -0.18775117 -0.26602778 0.26829252 0.27200735
-0.15617469 -0.048641033 -0.17575623 -0.15856948 0.26063785 -0.055076934 -0.15014501 -0.06567103
-0.0014202923 -0.27362803 -0.14932577 -0.17733891 -0.24655831 0.25534293 0.23670428 0.16112058
-0.14275675 0.23915806 0.104485944 0.25351447 0.03983586 0.27788118 0.15896797 -0.26792088
0.18322389 -0.26659712 -0.030775502 -0.2708773 -0.2843221 -0.13096298 0.15007119 -0.09576551
0.16784151 0.16816713 0.28654742 -0.06070726 -0.022792554 0.18024085 -0.17394732 -0.15025981
00000000: b76a 7cbe 24e3 f93d f5b2 c23d 290a 32be
00000010: 57b5 8cbe 9c82 22be 2d51 83be 1d76 813e
00000020: 914d 543e 61b3 53be dba9 7dbe d903 87bd
00000030: 07f9 c6bb 2d45 053e a9c6 213e 11c6 e13c
00000040: 9def 88bd 71a8 6d3e 6131 ae3d 2937 a03d
00000050: f1fa 96bc ee72 a1bd f3c9 d23d b249 90be
00000060: d578 a43c 5d1d d7bd 1780 1b3e b73a 343e
00000070: ac5d 8abe 90b2 4abe c324 82be c8fe 2b3e
00000080: a7e9 aabd fa9b 15be d5a5 2c3d 0e7d 58be
00000090: baa4 56be 25b8 a9bd 9452 36be 0404 073d
000000a0: a038 e3bc 1ef9 e2bd 7dc1 96bd 4057 f83d
000000b0: d6cc 6d3d 03c3 6c3e b712 92be d273 b7bd
000000c0: f927 bcbd 4205 303e d4ab 7abe 9331 b23d
000000d0: a614 58be 3295 20be bd18 91bd 501e 81be
000000e0: 1873 cbbb 1dc6 833e 379b 843e 031e 2cbd
000000f0: 5b6d 1ebe ce96 48be ac46 973e 9b1b 12bd
00000100: 031f 7fbe 06dd 6f3e af95 873e 29d4 7e3e
00000110: 95ac 7abe afa0 0c3e f614 23be bea8 753e
00000120: 1cff bf3d 5f50 d2bc d48f 1d3e b4fe a93d
00000130: 7df5 2c3d a5d7 9d3d ef17 b43c a18b e63d
00000140: 1490 7f3e 7166 4e3e ba9b 6fbc 1151 64be
00000150: 9f2a 1abe 8d29 8b3e 3636 85be eb0c 79be
00000160: d4b6 8fbd dbd9 80be 4a4f 9f3c 6caa 613e
00000170: a08e 803c 3d74 933e 1f81 a2bd e5c2 65bd
00000180: dfc3 4cbe bbde e03d cdf8 71be 223d 2c3d
00000190: 9ccd b3bd 7c16 2d3d 09fa 153e 5705 f43d
000001a0: f3a1 8abe 29dc 3ebe c9aa 87be cb39 cf3d
000001b0: 7637 003e e629 82be f57f 2d3e 6277 873c
000001c0: 75ba 613a 5e83 d2bd b97d 35be 8b6b 223e
000001d0: 27ce 303e c16d aebd 3f4b 383e 8bb5 d7bd
000001e0: 9184 55be 7229 25be 50cd 1e3e 01df 823d
000001f0: 108c 77be e7a7 b53d 067a 88bd 79fc e53d
00000200: 1e09 44bd 1d32 3dbe 5201 073d 9498 443e
00000210: 29bd 133e 811c 633e c3f1 4bbe c480 873e
00000220: 5d69 f1bd e4b5 043e 7993 98be 166f 0fbd
00000230: 41a9 613e edd1 3dbe 038c a73d e9b8 3d3e
00000240: d986 a0bd 78e6 4fbd 6da8 3e3e da7c 17be
00000250: c77b 13be f2c8 60bd 3d9e 9d3c a692 14be
00000260: cab4 4c3e 2588 b83d 0a8e 3dbe 13ed 94be
00000270: 53d7 42bc d5e8 7d3d 3bb0 963e 4df1 d9bd
00000280: 2a27 17be 0f87 3b3e 9017 04be 4cad 38be
00000290: e3be 8dbe 9a8e f5bd 8ceb 003e 67c5 5e3e
000002a0: 02ba 933e 4a8c 19be 531b 6dbe 1a7f 2e3e
000002b0: 81b2 26bd 6a01 eabd 25dd 823e f0b8 8abe
000002c0: 43ae 873e 6a56 9f3c 82e9 4b3e c3a7 133e
000002d0: 569e 08be 9308 85be 093a 893e f706 22be
000002e0: ee67 58be 628a 51be ee8d 80be 3c21 a7bd
000002f0: d9c8 1e3e 61dc 44bd a4e8 c13d 37cf b53d
00000300: f34c 23be 8336 0d3c 59f8 7fbe fd11 643e
00000310: fee6 e03d 39cb 7cbe 982e 1ebe f151 8dbe
00000320: d5ac 85be b12c cdbd 1e97 533b a938 033e
00000330: 2290 98be 15dd b2bd 5fea c9bd 69ae 8ebe
00000340: 6a11 0abe 5fd5 b23d 5297 c7bc e661 58be
00000350: d841 40be cb34 88be a35d 893e 8c44 8b3e
00000360: 42ec 1fbe d23b 47bd 71f9 33be 0a60 22be
00000370: 5372 853e 5a98 61bd 9dbf 19be 887e 86bd
00000380: 1a29 baba f918 8cbe dbe8 18be 5598 35be
00000390: c879 7cbe 4fbc 823e 9b62 723e cbfc 243e
000003a0: d32e 12be dae5 743e bafc d53d a6cc 813e
000003b0: ed2a 233d 7146 8e3e 80c8 223e ed2c 89be
000003c0: 0b9f 3b3e 6b7f 88be e81c fcbc 6eb0 8abe
000003d0: ab92 91be 291b 06be 43ac 193e b520 c4bd
000003e0: a5de 2b3e 0134 2c3e 58b6 923e 2da8 78bd
000003f0: 73b7 babc 0f91 383e 3f1f 32be b5dd 19be

linear1.bias f4 [256]
0.21282081 -0.23498233 0.21497561 -0.21608749 -0.017035795 0.32335892 -0.18842994 -0.19898725
-0.08354031 -0.19759592 -0.045597643 0.18431456 -0.1385187 -0.2774603 -0.2695333 0.074111566
-0.19996373 -0.08530807 0.072051324 -0.20444766 -0.032905597 -0.035800178 0.14369524 -0.33157393
0.2131035 -0.05133545 -0.034525152 0.28922155 0.11041139 0.14011872 -0.15898557 -0.0012321741
-0.15754202 0.11378513 -0.14621496 0.2303136 -0.024411147 -0.17884013 0.16373086 -0.2416917
-0.019545712 0.05646107 0.26786873 0.18179764 -0.18286403 0.13916463 -0.1638235 -0.029510973
-0.20866053 -0.044416215 0.15527493 0.25972655 0.20360959 0.30020025 -0.09776239 -0.15135653
0.041587148 -0.04476324 -0.14883606 -0.12995458 0.096103705 -0.06666418 0.20828974 -0.020077609
-0.104863316 -0.2123909 0.2034155 0.08124996 0.31627268 -0.195263 -0.12864478 -0.21810465
0.06661529 0.07576475 0.022877188 -0.07310613 -0.2030994 -0.17909762 0.0020767194 0.18488744
-0.186693 -0.03432562 -0.16182873 -0.044119913 -0.25160798 0.24865402 -0.08720056 0.19084562
0.07174386 0.18982401 0.19023071 -0.042778585 0.044571154 0.07763337 -0.20662706 0.17173272
0.1893604 -0.0032300744 0.07047264 -0.19353755 -0.294988 -0.27975455 0.03260576 0.20055844
0.27796078 -0.13357146 -0.1644581 -0.06680945 -0.26725066 -0.29141194 -0.10213323 0.18050832
-0.2169404 -0.0042790263 0.17043084 0.25441918 0.21401498 -0.10872101 -0.113112524 0.28641906
0.043860883 0.20715173 -0.31585518 0.04074562 0.10093675 0.11870745 -0.24933182 0.069436416
-0.2047653 0.29484984 -0.07324574 0.045487273 -0.07275003 -0.036740866 -0.14308788 -0.09286802
0.2633218 0.26046443 -0.087796815 -0.123898424 -0.04840509 -0.26934406 0.20763037 0.04569091
-0.07207968 0.06453215 -0.2860145 -0.0507669 -0.3075528 0.19278184 0.017540053 -0.0059121717
-0.066928424 -0.11667191 0.18365383 -0.18301141 0.094294734 0.11348811 -0.18518111 -0.23091653
-0.07213133 0.08369113 0.2312577 0.18197618 0.080886774 -0.058670122 -0.20737696 -0.22689973
-0.25027087 -0.11845352 0.08387694 0.2388227 -0.11149316 -0.13814026 -0.11765716 -0.04277977
-0.07526428 0.18314205 -0.24314658 -0.004271774 -0.2981684 -0.24311401 -0.06967321 0.22071658
-0.021230064 0.12435777 0.13938515 -0.06610521 -0.2827457 -0.15624249 -0.13593142 0.054924067
-0.085915 -0.2892453 0.25483903 -0.24625956 -0.20719682 0.29328528 -0.17866471 -0.03759182
-0.0014254538 0.0020480696 0.29039407 -0.02384458 0.007230825 0.10462969 0.05701078 -0.23065586
0.04963166 0.2862912 -0.02692845 0.21154754 -0.07461506 0.15305847 0.21931113 0.27715448
0.022057405 0.18690442 0.30117086 0.11648501 0.22813936 0.30249912 -0.12493858 -0.22476968
-0.18783697 -0.09226421 -0.30551866 0.101276234 -0.08953933 -0.06735788 0.04338197 -0.29815438
-0.1306247 0.19616437 0.3022224 0.005081313 0.16756476 0.02656555 0.3047285 0.014977347
0.074843355 0.0194008 0.271503 -0.30254355 0.14681496 -0.28316003 -0.09812559 -0.20755306
0.27133766 0.31786582 0.21037965 0.11574857 -0.20726657 0.26410526 0.109666675 -0.2679041
00000000: b3ed 593e 359f 70be 9122 5c3e 0a46 5dbe
00000010: a78e 8bbc 4d8f a53e c7f3 40be 50c3 4bbe
00000020: 2f17 abbd 9656 4abe 98c4 3abd f5bc 3c3e
00000030: d9d7 0dbe 470f 8ebe 4500 8abe cec7 973d
00000040: 4bc3 4cbe ffb5 aebd a58f 933d ba5a 51be
00000050: 05c8 06bd 35a3 12bd d824 133e 0fc4 a9be
00000060: ce37 5a3e 1f45 52bd 3f6a 0dbd d914 943e
00000070: 5e1f e23d 487b 0f3e 1dcd 22be e780 a1ba
00000080: b252 21be 2e08 e93d 60b9 15be 54d7 6b3e
00000090: e3f9 c7bc de21 37be 10a9 273e 077e 77be
000000a0: 541e a0bc b943 673d 1726 893e 2929 3a3e
000000b0: b540 3bbe 2c81 0e3e 59c1 27be ffc0 f1bc
000000c0: 1bab 55be c7ed 35bd 6400 1f3e e1fa 843e
000000d0: 087f 503e d9b3 993e a637 c8bd 35fd 1abe
000000e0: 4957 2a3d a959 37bd 7b68 18be d012 05be
000000f0: 05d2 c43d 3b87 88bd e849 553e cc79 a4bc
00000100: 94c2 d6bd 007d 59be 274c 503e 6166 a63d
00000110: 7eee a13e 06f3 47be 75bb 03be d356 5fbe
00000120: 996d 883d 8d2a 9b3d f168 bb3c abb8 95bd
00000130: 4af9 4fbe 5e65 37be 9219 083b 2253 3d3e
00000140: 732c 3fbe 0599 0cbd 6eb6 25be 15b7 34bd
00000150: c3d2 80be 299f 7e3e 3596 b2bd 096d 433e
00000160: 72ee 923d 3a61 423e d7cb 423e 9938 2fbd
00000170: 3e90 363d 3ffe 9e3d 0b96 53be b4da 2f3e
00000180: b1e7 413e a8af 53bb f653 903d b52e 46be
00000190: ab08 97be fd3b 8fbe 9e8d 053d 315f 4d3e
000001a0: e050 8e3e f5c6 08be b467 28be 65d3 88bd
000001b0: 14d5 88be f233 95be 3a2b d1bd 2cd7 383e
000001c0: a025 5ebe 1337 8cbb 6c85 2e3e 3b43 823e
000001d0: be26 5b3e 1fa9 debd 8aa7 e7bd 85a5 923e
000001e0: 78a7 333d 951f 543e c5b7 a1be e1e4 263d
000001f0: edb7 ce3d e41c f33d d750 7fbe ae34 8e3d
00000200: ffad 51be 8ff6 963e dd01 96bd dd50 3a3d
00000210: f8fd 94bd 977d 16bd a185 12be 9731 bebd
00000220: 1dd2 863e 985b 853e d1ce b3bd 75be fdbd
00000230: 6a44 46bd 77e7 89be 0e9d 543e 6426 3b3d
00000240: 839e 93bd 6f29 843d 7e70 92be f4f0 4fbd
00000250: 9077 9dbe 9a68 453e 28b0 8f3c e4ba c1bb
00000260: c511 89bd aff1 eebd c00f 3c3e 5867 3bbe
00000270: 991d c13d 746c e83d 1ea0 3dbe 6275 6cbe
00000280: 97b9 93bd 4166 ab3d d2ce 6c3e f757 3a3e
00000290: f7a7 a53d 1550 70bd a05a 54be 6758 68be
000002a0: 8123 80be c297 f2bd acc7 ab3d f08d 743e
000002b0: 8756 e4bd a474 0dbe 3df6 f0bd d739 2fbd
000002c0: 2924 9abd 9789 3b3e 6bfb 78be 3dfa 8bbb
000002d0: 87a9 98be e1f2 78be d4b0 8ebd 8703 623e
000002e0: acea adbc 49af fe3d fbba 0e3e 2b62 87bd
000002f0: 0bc4 90be 08fe 1fbe 9b31 0bbe 0ff8 603d
00000300: 34f4 afbd f617 94be 437a 823e 772b 7cbe
00000310: 672b 54be 7d29 963e e2f3 36be e1f9 19bd
00000320: 4bd6 baba e838 063b 88ae 943e b555 c3bc
00000330: 8ef0 ec3b 1748 d63d 2384 693d 0d31 6cbe
00000340: 914a 4b3d c394 923e 0e99 dcbc eb9f 583e
00000350: c8cf 98bd 5cbb 1c3e 1993 603e 31e7 8d3e
00000360: bbb1 b43c df63 3f3e 1133 9a3e b18f ee3d
00000370: 5d9d 693e 2ae1 9a3e ccdf ffbd 062a 66be
00000380: 5658 40be 05f5 bcbd f16c 9cbe ea69 cf3d
00000390: 6560 b7bd eef2 89bd 4bb1 313d b1a7 98be
000003a0: 7bc2 05be 50df 483e e5bc 9a3e 2581 a63b
000003b0: 1996 2b3e ff9f d93c 6005 9c3e 8c63 753c
000003c0: 7947 993d 6dee 9e3c 7102 8b3e fde6 9abe
000003d0: a956 163e 5afa 90be 12f6 c8bd ca88 54be
000003e0: c5ec 8a3e 4fbf a23e c36d 573e 960d ed3d
000003f0: b03d 54be ce38 873e ec98 e03d ba2a 89be

linear2.weight f4 [3, 256]
-0.049365737 -0.07310148 -0.020743493 0.014673449 -0.0050373496 -0.05933234 0.044524573 0.0046666227
-0.008454254 0.02572882 -0.029053625 0.028641885 -0.046746362 -0.05608684 0.014298604 -0.027361732
-0.055417567 0.017354954 -0.04010575 0.05905011 0.004468628 -0.06534096 -0.026642546 -0.0028486715
-0.057948437 -0.0104631 -0.06906676 -0.010022986 -0.026442105 0.038613584 -0.058803633 -0.008531012
0.055028744 -0.033650253 -0.015774352 -0.025935598 0.015883056 -0.0019282266 -0.02054454 0.04283622
0.0030843832 -0.08464286 0.0021388247 -0.0015697982 0.007951169 -0.0018409594 -0.060597967 -0.034634538
-0.04139786 -0.028941028 -0.028392281 -0.048594866 0.017301304 -0.012450637 0.01995909 0.016242176
0.009789817 -0.024652647 -0.02475546 0.03055967 -0.06724087 0.03369047 -0.019699454 0.02502741
-0.050636034 -0.06450569 0.000193282 0.027860902 0.026616948 0.0115167415 -0.0062404023 -0.015951047
-0.022133438 -0.063737385 -0.05448936 0.05700785 -0.015883029 -0.018430097 -0.015003743 0.013040982
-0.034061894 -0.067393936 -0.03731172 0.00012405956 0.012609929 0.033335894 -0.054440267 -0.027129792
-0.013843261 -0.014212152 0.010395648 -0.0007426739 0.002400495 -0.054438047 0.032316577 -0.054107513
-0.06599231 0.027438767 -0.05976028 0.024629794 -0.002448704 0.047608692 -0.07903366 0.016350135
-0.051960923 -0.067718655 -0.039429452 0.038956493 -0.005373898 0.0023564952 -0.08659877 0.022991287
0.011178348 -0.0044504576 -0.06165233 -0.0003319184 -0.023887465 -0.06208084 -0.069746226 -0.06718865
-0.006413813 -0.068016574 0.029471477 -0.06927501 -0.060673516 -0.038398385 -0.037695576 -0.0111001
-0.07119225 0.02387093 0.029160079 -0.0041457242 0.023259962 -0.010315844 -0.04550948 0.052166812
-0.059818402 0.03202227 0.031868458 0.05046895 -0.0055812243 0.03410654 -0.080048844 0.006754998
-0.013957161 -0.065552905 0.041674517 -0.08191002 0.02911623 0.019916024 0.010590274 -0.050300755
0.023284746 -0.07073179 0.021761116 0.015498482 -0.016056567 -0.010423378 -0.036215995 0.040929567
0.01593229 -0.00066560734 -0.049744595 0.02419424 -0.04163327 0.03204429 -0.030616999 -0.0067926985
0.019437673 0.0043516443 -0.02923242 0.025755472 0.06371268 0.037139937 -0.017948285 0.0036693811
0.005919921 0.025746305 -0.058708902 0.02229507 -0.04216209 0.0326612 -0.031887375 -0.031548426
-0.080372036 -0.092619635 0.037606943 -0.030815182 -0.014159393 0.009538151 -0.06844134 0.0070335288
0.039825708 0.060665548 0.042916488 0.0067625227 -0.04711507 -0.019928643 0.056650765 0.023972122
-0.006500492 0.0012036806 -0.03958383 -0.028999202 -0.014197915 -0.017343083 -0.02166157 -0.043102477
-0.0836744 -0.015605032 0.023780495 -0.04245055 -0.0037175152 -0.0017156757 -0.060269725 0.005726025
-0.03448254 -0.058342658 -0.07360458 0.02373501 0.013933058 0.040019304 -0.07591205 -0.08210427
0.016349876 -0.023668595 0.04332298 -0.06012915 -0.011254154 -0.013119627 0.027367052 0.02698639
-0.010145329 -0.075597346 -0.052708756 0.0027972944 0.063610815 0.024439892 0.026701234 0.028712835
-0.04385289 0.0032603412 -0.032362998 0.022864133 -0.0458238 -0.06620273 0.015883043 0.01744569
-0.06888702 -0.010278318 -0.045774654 0.0420557 0.04484213 0.029686831 -0.070762336 0.056225628
00000000: ba33 4abd 3bb6 95bd 42ee a9bc e868 703c
00000010: 5a10 a5bb 7806 73bd 665f 363d 78ea 983b
00000020: b683 0abc 3fc5 d23c de01 eebc 63a2 ea3c
00000030: 1d79 3fbd 50bb 65bd b144 6a3c b625 e0bc
00000040: 88fd 62bd fa2b 8e3c ed45 24bd 87de 713d
00000050: 926d 923b 7bd1 85bd 7841 dabc c7b0 3abb
00000060: 575b 6dbd 6c6d 2bbc e072 8dbd 7337 24bc
00000070: 1d9d d8bc 4729 1e3d 14dc 70bd a8c5 0bbc
00000080: d265 613d d9d4 09bd 3739 81bc e476 d4bc
00000090: 2f1d 823c 8cbc fcba 064d a8bc 0875 2f3d
000000a0: 5d23 4a3b 3c59 adbd 862b 0c3b b0c1 cdba
000000b0: 9f45 023c 594c f1ba 9335 78bd f2dc 0dbd
000000c0: cd90 29bd bc15 edbc ee96 e8bc 690b 47bd
000000d0: 77bb 8d3c c2fd 4bbc 3f81 a33c 500e 853c
000000e0: 7865 203c 59f4 c9bc f6cb cabc 4658 fa3c
000000f0: 95b5 89bd 05ff 093d c060 a1bc 4806 cd3c
00000100: bb67 4fbd 8f1b 84bd beab 4a39 8c3c e43c
00000110: c90b da3c b7b0 3c3c 4a7c ccbb c5ab 82bc
00000120: 2f51 b5bc bf88 82bd 3c30 5fbd 1081 693d
00000130: 201d 82bc b7fa 96bc 42d2 75bc d8a9 553c
00000140: 7c84 0bbd d505 8abd 2dd4 18bd fc15 0239
00000150: e099 4e3c 388b 083d c2fc 5ebd 4c3f debc
00000160: d8ce 62bc 16da 68bc 8252 2a3c 00b0 42ba
00000170: a051 1d3b 6efa 5ebd 635e 043d d79f 5dbd
00000180: fa26 87bd 44c7 e03c 32c7 74bd 6cc4 c93c
00000190: 707a 20bb 5501 433d 66dc a1bd b8f0 853c
000001a0: fad4 54bd 14b0 8abd c780 21bd d890 1f3d
000001b0: 8617 b0bb 6e6f 1a3b b25a b1bd 3958 bc3c
000001c0: 6425 373c 25d5 91bb 2787 7cbd 5505 aeb9
000001d0: a5af c3bc 7b48 7ebd 1cd7 8ebd 349a 89bd
000001e0: f72a d2bb 464c 8bbd 2b6e f13c 0ee0 8dbd
000001f0: cb84 78bd a047 1dbd ad66 1abd 32dd 35bc
00000200: 3ecd 91bd f88c c33c 1ee1 ee3c dbd8 87bb
00000210: ad8b be3c c903 29bc 2668 3abd deac 553d
00000220: 2404 75bd c929 033d 8088 023d 88b8 4e3d
00000230: b4e2 b6bb 4db3 0b3d a6f0 a3bd 0859 dd3b
00000240: 94ac 64bc 9a40 86bd e6b2 2a3d 71c0 a7bd
00000250: 2985 ee3c ee26 a33c d482 2d3c 2a08 4ebd
00000260: a7bf be3c d4db 90bd 5e44 b23c 58ed 7d3c
00000270: 1089 83bc d1c6 2abc 3957 14bd c3a5 273d
00000280: 6f84 823c 277c 2eba fdc0 4bbd 0033 c63c
00000290: a687 2abd e040 033d 80d0 fabc 4995 debb
000002a0: c13b 9f3c 3d98 8e3b d478 efbc 24fd d23c
000002b0: cb7b 823d 0c20 183d 4808 93bc 007a 703b
000002c0: e6fb c13b eae9 d23c bf78 70bd 27a4 b63c
000002d0: 28b2 2cbd c0c7 053d 569c 02bd ec38 01bd
000002e0: 189a a4bd 5daf bdbd bd09 1a3d 1f70 fcbc
000002f0: ccfc 67bc e845 1c3c f92a 8cbd 8479 e63b
00000300: 4820 233d 707c 783d 33c9 2f3d 2798 dd3b
00000310: bbfb 40bd 6541 a3bc a20a 683d 2f61 c43c
00000320: 1402 d5bb d2c4 9d3a a722 22bd bc8f edbc
00000330: 5f9e 68bc 1513 8ebc 9b73 b1bc 398c 30bd
00000340: 7c5d abbd 40ac 7fbc 50cf c23c a1e0 2dbd
00000350: 8ea1 73bb 86e0 e0ba 63dd 76bd 61a1 bb3b
00000360: 903d 0dbd b6f8 6ebd ffbd 96bd ec6f c23c
00000370: 7b47 643c 48eb 233d c777 9bbd 4926 a8bd
00000380: 2df0 853c a4e4 c1bc 7073 313d fc49 76bd
00000390: 5863 38bc b4f3 56bc de30 e03c 9012 dd3c
000003a0: 9838 26bc c8d2 9abd 23e5 57bd d052 373b
000003b0: 6346 823d 2b36 c83c 8cbc da3c 2e37 eb3c
000003c0: 179f 33bd 73ab 553b 108f 04bd 904d bb3c
000003d0: bdb1 3bbd 4c95 87bd 281d 823c 44ea 8e3c
000003e0: a314 8dbd 6466 28bc 347e 3bbd 9942 2c3d
000003f0: 62ac 373d cc31 f33c d8eb 90bd d84c 663d

linear2.bias f4 [3]
0.03680261 -0.053840276 -0.007812569
00000000: 55be 163d 9f87 5cbd 4a00 00bc
